Model-Project/feature_net_model.pth (torch, 9305 bytes, 7 tensors)

hidden_weights f4 [120, 2]
0	0x3f2ac4a3	0.66706294
1	0x3f6aa598	0.91658926
2	0x3e701a0f	0.2344744
3	0x3fd34735	1.6506106
4	0x3eb20459	0.34768942
5	0x3ff1910e	1.8872392
6	0xbf897e56	-1.074168
7	0x3e990175	0.29883924
8	0xbe5cce04	-0.21562964
9	0x3f86aee1	1.0522119
10	0xc0045207	-2.0675066
11	0x3f860701	1.0470887
12	0x3f6db473	0.9285347
13	0xbe57fbb0	-0.21092105
14	0x3f744d00	0.9542999
15	0xbf058ed1	-0.52171046
16	0x3f1ede0e	0.6205758
17	0xbf575c26	-0.8412498
18	0xc023704c	-2.553729
19	0xbf9b7046	-1.2143638
20	0xbea6ba99	-0.32564238
21	0x3ef96d1d	0.4871606
22	0xbfbb6857	-1.4641217
23	0xbf876135	-1.057654
24	0x3f8d4b31	1.1038572
25	0x3fa2426e	1.2676523
26	0xbec25779	-0.3795736
27	0x3ef05a5d	0.46943942
28	0xbd939562	-0.07206227
29	0x3fdcd549	1.725259
30	0x3f299b15	0.6625226
31	0xbca62b7f	-0.020284412
32	0xbfcef40c	-1.6168227
33	0xbf06c144	-0.5263865
34	0xbef056db	-0.46941265
35	0x3f91cdb3	1.13909
36	0x3ecd2397	0.40066215
37	0xbc8685ee	-0.016421285
38	0xbf3b56df	-0.7317943
39	0x3fab139f	1.3365363
40	0x3e86f101	0.26355746
41	0xbf4accbe	-0.7921866
42	0xc019bf5e	-2.4023051
43	0xbe43e007	-0.19128428
44	0xb92caeab	-0.00016468267
45	0x3fe8990f	1.817171
46	0xbe55f122	-0.20892766
47	0x3f100223	0.5625326
48	0x3dd828c8	0.105546534
49	0xbf14bc80	-0.5810013
50	0x3d362158	0.044465393
51	0x3f3d21b1	0.73879534
52	0x3f0649d5	0.5245641
53	0xbf917cd6	-1.1366222
54	0x3e723c9d	0.23655935
55	0x3f9150ff	1.1352843
56	0xbeaa936a	-0.33315593
57	0xbf1a1598	-0.601892
58	0x3f9fb355	1.2476603
59	0xbfbd37e4	-1.4782681
60	0xbeebc554	-0.46048987
61	0x3f663b62	0.8993436
62	0x3f6c0343	0.92192477
63	0xbf55b4fa	-0.83479273
64	0x3ef42398	0.47683406
65	0xbf102714	-0.5630963
66	0xbfb18b5a	-1.3870652
67	0x3f10ac76	0.56513155
68	0xbf87e88b	-1.0617841
69	0xbdb2b22d	-0.087253906
70	0x3fceceea	1.6156895
71	0x3ef66a9b	0.4812821
72	0x3f9ffbd2	1.2498724
73	0x3ed91554	0.42399085
74	0xbf02de70	-0.5112066
75	0x3f01b1c2	0.5066186
76	0xbf9b6a78	-1.2141867
77	0x3fcfb889	1.6228191
78	0xbf18ce09	-0.59689385
79	0x3f88052f	1.0626582
80	0x3f3bee9b	0.7341096
81	0xbfceaa09	-1.6145641
82	0x3faa4aed	1.3304116
83	0xbf226b41	-0.63444906
84	0xbfd4fa58	-1.6638899
85	0x3f3b25d0	0.7310457
86	0x3e3a2ece	0.18181917
87	0x3ebac717	0.36480018
88	0xbf44440e	-0.76666343
89	0x3ee3e4fa	0.44510633
90	0x3fa9563e	1.3229444
91	0xbfcd02d8	-1.6016493
92	0xbebd60f3	-0.3698803
93	0x3e180d1e	0.14848754
94	0xbf9a090e	-1.2034013
95	0x3fb12e0c	1.3842177
96	0xbfd7c422	-1.685673
97	0x3f181d8d	0.5942009
98	0xc008004c	-2.1250181
99	0x3f96fad8	1.1795301
100	0x3fa924ca	1.3214352
101	0x3f2b9964	0.6703093
102	0xbdffb45a	-0.12485571
103	0x3e72ec66	0.23722991
104	0xbf2eda74	-0.68302083
105	0xbedd0984	-0.43171322
106	0x3f29054d	0.66023713
107	0x40083c84	2.1286936
108	0xbe91b64f	-0.28459403
109	0x3fa6dbcb	1.3035825
110	0x3f9330b5	1.1499239
111	0x3f445b29	0.767016
112	0x3f2fa4ce	0.68610847
113	0xbf2204c3	-0.63288516
114	0xbf600e6b	-0.87522
115	0x3fc57152	1.5425208
116	0x3f3ea939	0.74476963
117	0xbdd1923f	-0.10232972
118	0xbecfd33d	-0.4059085
119	0xbf69b902	-0.91297925
120	0x3ead5c9f	0.33859727
121	0x3f78c8b0	0.97181225
122	0xbf96694c	-1.1750884
123	0x3f279417	0.6546034
124	0x3e98bc8c	0.2983135
125	0xbe737af2	-0.23777369
126	0xbfbd1ae6	-1.4773834
127	0x3ff33b5e	1.9002492
128	0xbddbb21d	-0.10727332
129	0x3f427fbe	0.7597617
130	0x3f918fd5	1.1372019
131	0x400839e6	2.1285338
132	0x3f10fdd6	0.5663732
133	0x3f2be655	0.67148334
134	0x3f0160d5	0.5053838
135	0xbee5d4be	-0.44888872
136	0x3e746c39	0.23869409
137	0x3ee4cf98	0.4468963
138	0x3c2d4b4b	0.010577033
139	0x3fab1f6d	1.3368965
140	0x3fc5d778	1.5456381
141	0x3d1f3377	0.03886744
142	0x3ec1c699	0.3784683
143	0x3eca8115	0.39551607
144	0xbfdd4b45	-1.7288595
145	0xbfe7a24a	-1.8096402
146	0xbf424ff8	-0.7590327
147	0x3f4b7b44	0.79484963
148	0x3f283078	0.6569896
149	0x3f0252b2	0.50907433
150	0x3fe163ab	1.7608541
151	0xbf481c55	-0.7816823
152	0x3db1b1d7	0.086764984
153	0xbef1b55e	-0.47208685
154	0x3eae9f9a	0.3410614
155	0x3fab0764	1.336163
156	0x3f18cebd	0.5969046
157	0xbfc08098	-1.5039244
158	0xbf8d1d5d	-1.1024586
159	0xbf2ab09e	-0.66675746
160	0x402d400d	2.7070343
161	0x3e030f97	0.12798916
162	0x3e98797d	0.29780188
163	0xbef649a8	-0.4810307
164	0xbf172b0a	-0.5905005
165	0xbf702f04	-0.9382174
166	0xbe830692	-0.2559095
167	0xbf927d9f	-1.1444587
168	0x3e2dd1d5	0.16974576
169	0x3ed2466d	0.41069356
170	0x3e302f95	0.17205651
171	0xbe9551f9	-0.29164103
172	0x3f68f6d4	0.9100163
173	0xbf35e40d	-0.710511
174	0xbccea212	-0.025223766
175	0xbf471f17	-0.77781814
176	0xbf8fb5d8	-1.1227369
177	0xc0024648	-2.0355396
178	0xbdd02fd1	-0.1016537
179	0x3e9e072b	0.30864844
180	0x3f4e11b5	0.8049577
181	0x3f83abac	1.0286765
182	0x3e4a108a	0.19732872
183	0xbfacbb33	-1.3494629
184	0xbf799da6	-0.9750618
185	0x3e8b2c10	0.27182055
186	0xbe9b591f	-0.30341431
187	0xbfb568f3	-1.4172653
188	0x3fd8fd7c	1.6952357
189	0x3d9fc55f	0.078013174
190	0x3fb4e57a	1.4132531
191	0x3f35e7ad	0.71056634
192	0x3e634f1a	0.22198144
193	0x3f055a24	0.5209067
194	0xbf8e4a23	-1.1116375
195	0x3ed4157c	0.4142264
196	0xbf28d85a	-0.65955126
197	0x3f36125a	0.7112175
198	0xbf0ed789	-0.5579763
199	0xbfef1dd8	-1.8680983
200	0x3f4fb96f	0.81142324
201	0xbed578e6	-0.416938
202	0xbf8e5b96	-1.11217
203	0x3e9cd407	0.30630514
204	0xbfe159cd	-1.760553
205	0x3ee0b57d	0.43888465
206	0xbf827b28	-1.0193834
207	0x3f6b385e	0.91882885
208	0xbe1e6cad	-0.15471144
209	0xbf8ad6bf	-1.0846785
210	0xbf908595	-1.1290766
211	0xbf374a4e	-0.71597755
212	0xbfd7f1ef	-1.6870707
213	0xbfc0d8f1	-1.5066205
214	0x3e60159b	0.21883242
215	0xbf91ba72	-1.1385024
216	0xbf0423fd	-0.51617414
217	0x3fa6846a	1.300916
218	0xbf102e40	-0.5632057
219	0xbf937238	-1.1519232
220	0xbfde44df	-1.7364768
221	0xc002af09	-2.0419333
222	0xbfd64b43	-1.6741718
223	0x3fe8e616	1.8195217
224	0x3f2185eb	0.6309497
225	0x3fb196f8	1.3874197
226	0x3eb6d4c1	0.35709193
227	0x3fa7b2cd	1.3101441
228	0xbf19e924	-0.6012137
229	0x401da06b	2.4629161
230	0xbef4c13b	-0.47803673
231	0x3f270a76	0.6525034
232	0x3f9e8735	1.2385012
233	0xbf654ed5	-0.89573413
234	0x3f1abeaa	0.6044718
235	0xbd3e32ad	-0.046435047
236	0x3ef9c15b	0.4878033
237	0xbf95be39	-1.1698676
238	0xbf6164ca	-0.88044417
239	0xbf3af446	-0.7302898

hidden_bias f4 [120]
0	0xbe75e60b	-0.24013536
1	0xbf11007c	-0.56641364
2	0x3c35a595	0.011086841
3	0x00000000	0.0
4	0x3ec3bb4a	0.38228828
5	0x3db44c5e	0.088036284
6	0xbec61c05	-0.38693252
7	0x3e6a85af	0.22902559
8	0x3e6f10b2	0.23346213
9	0x3cc8d801	0.024517061
10	0x3dd19c5c	0.10234901
11	0xbe0f0a90	-0.13968873
12	0xbe04bfb6	-0.12963757
13	0xbe95e3ee	-0.2927546
14	0x00000000	0.0
15	0x3cdd451a	0.02701049
16	0x3b9a26bd	0.004704325
17	0x3cb44731	0.022006603
18	0xbef6cf2d	-0.48204938
19	0xbd25e82b	-0.040504616
20	0x3e82d440	0.2555256
21	0x3eafa587	0.34305975
22	0xb94ecfc6	-0.00019723093
23	0xbcca3ad8	-0.024686262
24	0x3e35320d	0.17694874
25	0x00000000	0.0
26	0xbe6994bd	-0.22810645
27	0xbc81623a	-0.015793908
28	0x3d0774ac	0.03307025
29	0xbee094bc	-0.43863475
30	0x3e8ae5ca	0.2712844
31	0xbec22d79	-0.37925318
32	0xbdef1bd9	-0.116752334
33	0x3d2918db	0.04128347
34	0x3ea6df93	0.3259245
35	0x00000000	0.0
36	0xbe9d4174	-0.30714
37	0x3f229425	0.635073
38	0xbe875be3	-0.26437292
39	0xbea48745	-0.32134452
40	0xbec1f5d0	-0.37882853
41	0x3d889d5f	0.06670641
42	0xbd830ed8	-0.063993156
43	0x00000000	0.0
44	0xbe3e49ba	-0.18582812
45	0x3e7fb977	0.24973093
46	0x3ea8a57b	0.32938752
47	0x3f0f2a17	0.559236
48	0x3ca58b91	0.020208152
49	0x3e439937	0.19101416
50	0x00000000	0.0
51	0x3d3a13ed	0.04542916
52	0x3edcdfd0	0.43139505
53	0xbeab5402	-0.3346253
54	0x3cf34116	0.029694121
55	0x00000000	0.0
56	0xbf0aa758	-0.54161596
57	0xbc2c8802	-0.010530474
58	0xbe0a67fd	-0.13516231
59	0x00000000	0.0
60	0x3d5966d1	0.05307657
61	0x3ed7a79d	0.42120066
62	0xbd065605	-0.03279688
63	0x3e604de1	0.21904708
64	0x3e9a757a	0.30167753
65	0x3e0bc169	0.13647999
66	0xbd2e4664	-0.0425476
67	0xbe457bb9	-0.19285478
68	0xbedc235d	-0.4299573
69	0x00000000	0.0
70	0x3c80d507	0.01572658
71	0x3ea85471	0.32876924
72	0x3e3098a6	0.17245731
73	0x3e7c3a94	0.24631721
74	0xbe2c8798	-0.168486
75	0x3e29f34c	0.16596717
76	0x00000000	0.0
77	0x00000000	0.0
78	0xbeaa9cdf	-0.33322808
79	0x3df76dae	0.120814666
80	0xbe2ac6d8	-0.16677415
81	0x3e99f4fc	0.3006972
82	0xbd17eb0d	-0.037089396
83	0xbe948667	-0.2900879
84	0x3e3b7b61	0.18308784
85	0x3e67c3eb	0.2263333
86	0xbc8d8df8	-0.01727961
87	0x3dff5f16	0.12469308
88	0x3caca901	0.021076681
89	0x3ea8c42c	0.32962167
90	0x3e93ddbd	0.2888011
91	0xbded9e20	-0.116024256
92	0x3db21835	0.086960234
93	0x3e637d6a	0.2221581
94	0xbd8a0604	-0.06739429
95	0xbdced555	-0.100992836
96	0x3e231105	0.15924461
97	0x00000000	0.0
98	0x3dc8f141	0.098116405
99	0x3dc8266d	0.09772954
100	0xbebf6a51	-0.373858
101	0x3e47b403	0.19502263
102	0x3dade710	0.08491337
103	0x3e733d8f	0.23753951
104	0x00000000	0.0
105	0x3f05fe83	0.5234148
106	0x00000000	0.0
107	0x00000000	0.0
108	0x3f716622	0.9429647
109	0x3f104bc7	0.5636563
110	0x3f2a0553	0.66414374
111	0x3e9d927e	0.30775827
112	0xbf03f711	-0.5154887
113	0xbe7e0418	-0.24806249
114	0x3f173135	0.5905946
115	0x3e08e675	0.13369162
116	0x00000000	0.0
117	0xbc7ae2b2	-0.015312837
118	0xbdb3c8ad	-0.0877851
119	0x3e910da0	0.28330708

film.gamma_net.weight f4 [120, 3]
0	0xbef5acf0	-0.47983503
1	0xbedceda7	-0.43150064
2	0x3eeafb06	0.4589464
3	0xbf126b28	-0.5719476
4	0xbee774b0	-0.45206213
5	0xbe52ade7	-0.20574151
6	0xbf0b24af	-0.5435285
7	0xbe446e30	-0.19182658
8	0x3d332749	0.043738637
9	0x3dab8214	0.0837442
10	0x3e81bccc	0.25339353
11	0x3ef2a91a	0.4739464
12	0x3ae0562f	0.0017115528
13	0xbddda11b	-0.10821744
14	0xbd0becda	-0.034161426
15	0x3ed96271	0.42457917
16	0xbe056c54	-0.13029605
17	0xbe1f290e	-0.15543005
18	0x3dce73ba	0.10080667
19	0x3ed79535	0.42106023
20	0x3d896d0c	0.06710252
21	0xbf08b5d0	-0.53402424
22	0xbe61d140	-0.22052479
23	0xbf614789	-0.8799978
24	0xbef598cd	-0.4796814
25	0x3e43deda	0.1912798
26	0xbe882b25	-0.26595417
27	0x3e928885	0.2861978
28	0xbe1031ed	-0.14081545
29	0xbea11350	-0.31460047
30	0xbeb1b00e	-0.34704632
31	0xbec6c035	-0.38818517
32	0xbe9e8b0a	-0.30965453
33	0xbefcaa6f	-0.4934878
34	0x3e141558	0.14461267
35	0xbe4851d0	-0.19562459
36	0x3e27ea3c	0.16397947
37	0xbf026dcb	-0.5094878
38	0x3c6b8b2b	0.014376442
39	0xbe957d16	-0.29196995
40	0xbdcd9deb	-0.10039886
41	0x3f046d33	0.51729125
42	0x3ea86cbe	0.32895464
43	0x3e14c6f3	0.14529018
44	0xbec8fbf3	-0.39254722
45	0x3e131d4c	0.14366645
46	0xbe916b90	-0.28402376
47	0xbebabeda	-0.36473733
48	0xbed496c4	-0.41521275
49	0x3e0b4cf6	0.13603577
50	0x3e00950f	0.12556861
51	0x3ca658ec	0.020306073
52	0x3ecdc5cd	0.40189973
53	0xbd908581	-0.07056714
54	0xbe8c76d1	-0.274344
55	0x3ecb6332	0.39724118
56	0xbecd2fdd	-0.4007558
57	0x3d70815a	0.05871711
58	0x3e41601a	0.18884316
59	0xbec0d6ad	-0.37663785
60	0xbebf320a	-0.37342864
61	0x3cab43f1	0.02090642
62	0xbed42322	-0.41433054
63	0x3ebd5961	0.36982253
64	0xbe3d3896	-0.18478617
65	0x3d4907f7	0.04907986
66	0x3e90c123	0.28272352
67	0xbf0c3f09	-0.54783684
68	0xbe7fc03b	-0.24975674
69	0x3e8e144f	0.2774987
70	0x3df896c8	0.12138134
71	0x3debc75b	0.115126334
72	0x3e0dcfad	0.13848753
73	0x3edb9837	0.42889568
74	0xbeb5acb5	-0.35483328
75	0xbdd87020	-0.10568261
76	0xbe8559df	-0.2604513
77	0xbee99456	-0.45620984
78	0x3ee38992	0.44440895
79	0x3ead10ea	0.33801967
80	0x3f2d1d3e	0.67622745
81	0x3eb84df0	0.35996962
82	0xbf04edc2	-0.5192529
83	0x3e6fa571	0.23402955
84	0xbf02badb	-0.5106637
85	0x3dbb9d31	0.09160841
86	0xbec47c26	-0.38375968
87	0xbece4c1b	-0.4029244
88	0x3f142216	0.5786451
89	0x3e616786	0.22012147
90	0x3e84f68d	0.25969353
91	0xbf688046	-0.9082073
92	0x3f33c185	0.7021716
93	0x3e4bb2ed	0.19892474
94	0xbf450640	-0.7696266
95	0x3efd28e0	0.49445248
96	0xbd82f5f9	-0.06394572
97	0xbf18a28d	-0.5962303
98	0x3d4bb62b	0.049734276
99	0xbef94c2c	-0.48690927
100	0xbe26c69b	-0.162867
101	0xbecba59c	-0.39774787
102	0xbea65cf7	-0.32492802
103	0xbe22b0b0	-0.15887713
104	0x3edf3056	0.43591565
105	0xbe55e279	-0.20887174
106	0x3d896583	0.06708815
107	0xbf11141c	-0.5667131
108	0xbef1fb9e	-0.4726228
109	0x3b8e8a89	0.004350011
110	0x3e0d29de	0.13785502
111	0x3ecc1ce8	0.39865804
112	0xbf94bab2	-1.1619475
113	0xbdc4ebe6	-0.096153066
114	0xbec357cc	-0.3815292
115	0xbe9a16b5	-0.3009545
116	0x3ec74c6c	0.38925493
117	0xbebd8547	-0.37015745
118	0x3db224ba	0.08698411
119	0x3ec1856d	0.37797108
120	0x3e1f0255	0.15528233
121	0x3f39a3cd	0.72515565
122	0x3de417d0	0.111373544
123	0xbebd20ba	-0.3693903
124	0xbec3a064	-0.38208306
125	0x3daa265f	0.083081
126	0xbe351469	-0.17683567
127	0x3f17a7a2	0.5924016
128	0xbe89da32	-0.26924282
129	0x3e56fcb0	0.2099483
130	0xbebd0e45	-0.3692495
131	0x3de4ba1b	0.11168309
132	0xbe987cc1	-0.2978268
133	0x3f3ce505	0.73786956
134	0xbdb6b8fd	-0.089220025
135	0xbd99089b	-0.074723445
136	0x3e9488ea	0.29010707
137	0xbd38ce3c	-0.045118555
138	0x3eb88d97	0.36045524
139	0xbf27e267	-0.6557984
140	0x3edba79d	0.42901316
141	0x3eafce60	0.3433714
142	0xbea22502	-0.3166886
143	0x3d28cada	0.04120908
144	0x3d829aee	0.06377207
145	0xbeef7711	-0.46770528
146	0x3d99eab9	0.07515473
147	0x3e176b9f	0.14787148
148	0xbdca8398	-0.09888381
149	0xbe230ae7	-0.15922128
150	0xbf0a355f	-0.5398769
151	0xbf03a797	-0.51427597
152	0xbee8629b	-0.4538773
153	0xbe838a94	-0.25691664
154	0x3de29cb9	0.11065049
155	0xbeb70be8	-0.3575127
156	0x3e3ee6e5	0.18642767
157	0x3e9a069a	0.30083162
158	0x3ced8d80	0.028998137
159	0xbeae8075	-0.3408238
160	0x3f25336d	0.64531595
161	0x3d7c3fc3	0.061584245
162	0xbed346a0	-0.4126482
163	0x3db1d5e2	0.08683373
164	0x3f68b2ee	0.90898025
165	0xbe866b0f	-0.26253554
166	0xbef0eea0	-0.47057056
167	0xbedb953f	-0.42887303
168	0x3b400f26	0.0029305904
169	0x3f0c198d	0.5472649
170	0x3eaf3793	0.34222087
171	0xbeacaf9e	-0.33727735
172	0xbd867ab3	-0.06566372
173	0x3eac65b3	0.3367134
174	0xbf076df6	-0.5290216
175	0x3e8aaa5d	0.27083102
176	0x3f0abc4d	0.54193574
177	0xbe68e1e0	-0.22742414
178	0xbec73948	-0.3891089
179	0x3e27e852	0.16397217
180	0x3e6bfe2f	0.23046182
181	0x3e87707c	0.26453006
182	0xbf0ed2d0	-0.55790424
183	0x3d394136	0.045228206
184	0xbec850bc	-0.39124095
185	0x3eae016f	0.3398547
186	0x3e32268a	0.17397514
187	0x3eea0744	0.45708668
188	0xbea18de9	-0.3155358
189	0xbeccc191	-0.3999143
190	0xbec7d839	-0.39032152
191	0xbe452f02	-0.19256213
192	0x3eb5b4fc	0.35489643
193	0x3dd8954c	0.10575351
194	0xbebc2a42	-0.3675099
195	0x3e8f5cf0	0.28000593
196	0x3e3dffed	0.18554659
197	0xbd77425a	-0.060366012
198	0x3ea030f2	0.31287342
199	0x3f132f4f	0.5749406
200	0xbefa02aa	-0.48830158
201	0xbeec947c	-0.46207035
202	0x3f1ce405	0.6128543
203	0xbef99d39	-0.48752764
204	0x3e409b44	0.18809229
205	0x3f39d4ad	0.7259014
206	0x3eeddc28	0.46457028
207	0xbca99a0a	-0.020703334
208	0x3ccbb676	0.024867278
209	0xbe3b5845	-0.18295391
210	0xbeffba40	-0.49946785
211	0x3ec1500e	0.3775639
212	0x3c717d39	0.014739328
213	0xbe16136e	-0.1465585
214	0x3e3eeb41	0.1864443
215	0xbf158066	-0.58399045
216	0xbed22f18	-0.41051555
217	0x3f5cc702	0.8624116
218	0x3e136f56	0.1439794
219	0xbe915f8e	-0.28393215
220	0x3f52cd6b	0.8234469
221	0xbea9b332	-0.33144528
222	0xbe609653	-0.21932344
223	0xbcea7b40	-0.028623223
224	0xbcaa08ea	-0.020756204
225	0xbebf0d9d	-0.37315074
226	0xbe610caa	-0.21977487
227	0xbea8813a	-0.32911092
228	0x3f04272f	0.5162229
229	0xbf0bc3e0	-0.54595757
230	0xbf0aec34	-0.5426667
231	0xbc01ec92	-0.007929938
232	0xbd2d5f83	-0.042327415
233	0xbecd2ef3	-0.40074882
234	0xbef3f905	-0.47650924
235	0xbd19c9e0	-0.03754604
236	0x3f48fab0	0.7850752
237	0xbe66f3f8	-0.22554004
238	0xbe0c206b	-0.13684241
239	0x3d43d930	0.047814548
240	0x3f0ea081	0.5571366
241	0xbddaa344	-0.10675672
242	0x3e9c08a0	0.3047533
243	0x3e808cd0	0.2510743
244	0x3e122ad1	0.14274146
245	0xbf0e9dc0	-0.5570946
246	0xbe91d749	-0.28484562
247	0xbdecc57a	-0.11561103
248	0xbe935d57	-0.2878215
249	0x3e009ed4	0.12560588
250	0x3ee62fab	0.44958243
251	0x3f34884f	0.7052049
252	0x3eb50f01	0.3536301
253	0x3d88df8c	0.06683263
254	0xbdb5cc31	-0.08876837
255	0x3ea94f03	0.33068094

film.gamma_net.bias f4 [120]
0	0x3e8879a6	0.2665531
1	0xbee0e9c2	-0.43928343
2	0xbecf8cc4	-0.40537083
3	0x3dcc0598	0.099620044
4	0xbde296d2	-0.11063923
5	0x3e1f8db5	0.155814
6	0x3f0d0725	0.55089027
7	0xbf00d834	-0.503299
8	0xbeea85b6	-0.45805138
9	0x3eac44d8	0.33646274
10	0xbe9b3ef7	-0.30321476
11	0x3eb9aa08	0.36262536
12	0x3dbbc809	0.09169013
13	0x3f039037	0.5139193
14	0xbea38fc7	-0.3194563
15	0x3da66094	0.081238896
16	0x3dc773be	0.09738873
17	0xbc81630d	-0.015794301
18	0x3f44079b	0.76574105
19	0xbf1435f7	-0.57894844
20	0xbf2f45f2	-0.68466103
21	0x3d7d1af0	0.061793268
22	0x3f0c55ff	0.5481872
23	0x3dfb0c3c	0.12258193
24	0x3e3ffec0	0.18749523
25	0xbe96dae5	-0.29463878
26	0x3f2bc2ec	0.670943
27	0x3ebd3119	0.3695152
28	0xbdcab403	-0.09897616
29	0xbd29ade7	-0.04142561
30	0xbd6897d6	-0.056785427
31	0xbdd14994	-0.10219112
32	0x3f56397a	0.8368145
33	0x3f2518e5	0.6449111
34	0xbe75e08a	-0.24011436
35	0xbf0824d0	-0.5318117
36	0xbd6962bb	-0.056978922
37	0xbf6a64a3	-0.9155981
38	0xbe7de647	-0.24794875
39	0x3eea0a61	0.45711043
40	0x3e0905ec	0.13381165
41	0xbedbbc16	-0.42916936
42	0x3d6a348a	0.05717901
43	0xbd38b91a	-0.0450984
44	0x3f05a8c5	0.52210647
45	0xbf090fd0	-0.5353975
46	0xbf1da7af	-0.6158399
47	0x3d3e29fa	0.04642675
48	0x3eed6e2e	0.46373123
49	0xbeb274ab	-0.34854636
50	0xbec9a140	-0.39380836
51	0xbc8eeea2	-0.017447773
52	0xbd343805	-0.043998737
53	0x3d8158d3	0.0631577
54	0xbef02908	-0.46906304
55	0x3e83e2b6	0.25758904
56	0x3f434e1c	0.7629106
57	0x3f01017f	0.5039291
58	0xbe57199d	-0.21005864
59	0x3ef94257	0.48683426
60	0x3eed563a	0.46354848
61	0xbea67506	-0.32511157
62	0x3dc8031d	0.09766219
63	0x3eba9d55	0.3644816
64	0xbe984b2b	-0.2974485
65	0xbf478d18	-0.77949667
66	0xbc890b0b	-0.016728899
67	0x3ef5b0d0	0.4798646
68	0x3dd96124	0.10614231
69	0xbe5e648c	-0.21718043
70	0xbf09ce63	-0.53830546
71	0xbf08913b	-0.53346604
72	0x3d29fad2	0.041498967
73	0xbeb02271	-0.34401277
74	0x3e83a3c2	0.25710875
75	0x3d5f8a51	0.05457527
76	0xbe95bdfe	-0.29246515
77	0x3efa1b17	0.48848793
78	0x3e64b55d	0.2233481
79	0x3b089d62	0.002084576
80	0xbf25e2d7	-0.64799255
81	0xbf59c710	-0.8506937
82	0x3f0d9fc5	0.55321914
83	0xbe5fead6	-0.21866927
84	0xbf0beabf	-0.5465507
85	0xbe67bf73	-0.22631626
86	0xbeac4841	-0.33648875
87	0xbea3b682	-0.3197518
88	0xbe2361f0	-0.15955329
89	0xbec66d8b	-0.3875545
90	0xbdafc371	-0.08582199
91	0x3da4ea51	0.08052505
92	0xbc9e356b	-0.019312581
93	0xbee19b35	-0.44063726
94	0xbe7e63cc	-0.24842757
95	0xbe843eec	-0.25829256
96	0x3d5bf544	0.0537007
97	0x3f074add	0.5284861
98	0x3ee2a01b	0.44262776
99	0xbe567eef	-0.20946859
100	0xbf203a75	-0.625892
101	0xbea6b277	-0.32558033
102	0x3f1b0dd1	0.6056796
103	0xbe4f8b5a	-0.20268002
104	0xbe008224	-0.12549645
105	0xbe3a5302	-0.18195727
106	0x3e5a94ae	0.2134578
107	0xbde318f8	-0.11088747
108	0x3edecf56	0.4351756
109	0x3dc961fd	0.09833143
110	0xbda50370	-0.08057296
111	0x3e019cca	0.12657467
112	0xbf38705f	-0.72046465
113	0xbf1a3a2b	-0.6024501
114	0xbe7da354	-0.24769336
115	0x3ed38f94	0.4132048
116	0xbe0363be	-0.12831017
117	0xbecdddfc	-0.40208423
118	0xbec30831	-0.38092187
119	0xbd680cd4	-0.05665286

film.beta_net.weight f4 [120, 3]
0	0xbe3140bc	-0.1730985
1	0x3e8d0720	0.27544498
2	0xbf085df5	-0.5326837
3	0x3ea2d87a	0.31805784
4	0x3ef2f23f	0.47450444
5	0x3e93f117	0.28894874
6	0xbecf54bb	-0.40494332
7	0x3eccd49d	0.4000596
8	0xbee4f811	-0.4472051
9	0x3d947faa	0.072509125
10	0xbeba826f	-0.36427638
11	0x3ea00daf	0.3126044
12	0x3f02f664	0.5115721
13	0x3cc50a64	0.024052806
14	0xbf21401a	-0.62988436
15	0xbe6d1cb2	-0.23155478
16	0x3ea9598e	0.33076137
17	0x3e988323	0.2978755
18	0x3f0335c1	0.51253897
19	0xbf12d474	-0.5735543
20	0xbeb365a4	-0.35038483
21	0xbeac898b	-0.33698687
22	0x3e5aec3d	0.2137918
23	0x3d220e0e	0.039564185
24	0x3e9ba872	0.3040195
25	0xbdea6fe0	-0.1144712
26	0x3e196e77	0.14983545
27	0x3ce95b4c	0.028485917
28	0x3efd6740	0.49492836
29	0xbbfcd932	-0.0077163214
30	0x3d90d97a	0.0707273
31	0xbed371b3	-0.41297683
32	0x3e7ad956	0.2449697
33	0xbd13ff2b	-0.03613202
34	0xbc7d5868	-0.015462972
35	0xbd850b3a	-0.06496282
36	0x3efcba75	0.49361005
37	0xbea56349	-0.3230231
38	0xbed5f632	-0.41789395
39	0xbe806a17	-0.2508094
40	0x3e16179e	0.14657447
41	0x3e540d45	0.20708187
42	0xbb56e43e	-0.0032789852
43	0x3c1f2752	0.009713965
44	0x3e5d8ec8	0.21636498
45	0x3e87ab5d	0.26497927
46	0x3ec721e1	0.38893035
47	0x3f096f28	0.53685236
48	0xbe53e938	-0.20694435
49	0xbe28ff04	-0.1650353
50	0x3e35301a	0.1769413
51	0xbec80379	-0.3906515
52	0xbeb67a6f	-0.35640284
53	0xbef0340d	-0.46914712
54	0x3ee9584b	0.45575175
55	0xbed3a2c8	-0.4133513
56	0xbe5d1de8	-0.2159344
57	0x3e4a884f	0.1977856
58	0x3ea98db4	0.33115923
59	0xbe31e297	-0.17371593
60	0xbdf81e6a	-0.12115176
61	0xbd07a37a	-0.033114888
62	0xbeed9977	-0.46406147
63	0xbec6ad26	-0.38803977
64	0xbe451acd	-0.19248505
65	0x3eb3fd39	0.3515413
66	0x3eb0fad9	0.34566382
67	0xbc7d6258	-0.0154653415
68	0xbf0770e3	-0.52906626
69	0x3e70d8c5	0.23520191
70	0xbee646c0	-0.44975853
71	0xbef2c802	-0.4741822
72	0xbeda2c73	-0.42612037
73	0xbde368c1	-0.111039646
74	0xbf0e7e72	-0.5566169
75	0xbee6119a	-0.44935304
76	0xbd066395	-0.032809813
77	0xbdcda8d3	-0.10041966
78	0x3f03dad4	0.5150578
79	0x3c7bef8f	0.015376939
80	0x3eabbb06	0.33541125
81	0xbf085634	-0.53256536
82	0xbec213b0	-0.37905645
83	0xbf103c4b	-0.56342
84	0xbee6766c	-0.45012224
85	0xbde79e32	-0.1130947
86	0xbcdbe2dc	-0.026841573
87	0xbea844ca	-0.32864982
88	0xbefc218c	-0.49244344
89	0xbe9cf382	-0.30654532
90	0x3e9d88a3	0.30768308
91	0xbbe3147c	-0.006929932
92	0xbe4dfd16	-0.20116076
93	0x3e4ffd71	0.20311524
94	0x3ee78bc5	0.45223823
95	0xbd10ae3f	-0.035322424
96	0xbdaf0d50	-0.08547461
97	0xbdb2b470	-0.08725822
98	0xbe4185b6	-0.18898663
99	0xbe7d74a9	-0.24751534
100	0x3ee61efc	0.44945514
101	0xbf0275b1	-0.5096083
102	0x3ee5b603	0.44865426
103	0xbf53aed5	-0.8268865
104	0xbe2f282b	-0.17105167
105	0x3e7a57b3	0.24447517
106	0xbee1b23d	-0.44081298
107	0x3db1dc39	0.08684582
108	0xbd0882a6	-0.03332772
109	0x3dd3eb39	0.103475995
110	0xbe142ef1	-0.14471032
111	0x3e990488	0.2988627
112	0xbeb87aa6	-0.36031073
113	0xbd9447f8	-0.072402894
114	0x3ea26340	0.31716347
115	0xbf1712cd	-0.5901306
116	0xbf188b46	-0.59587514
117	0x3c92fca9	0.017942743
118	0xbd909b4d	-0.07060871
119	0x3e6bb2b1	0.23017384
120	0xbe9ca450	-0.3059411
121	0x3ebe1a36	0.37129372
122	0x3d4e7fe2	0.050414927
123	0xbeb499d9	-0.35273626
124	0x3e688632	0.22707441
125	0xbed7e2cd	-0.42165223
126	0x3e959d68	0.29221654
127	0x3f050a92	0.51969254
128	0xbec86f21	-0.39147285
129	0x3f025af6	0.50920045
130	0xbea0d378	-0.31411338
131	0xbe93127d	-0.28725043
132	0xbd159dfe	-0.036527626
133	0x3ea7dcc2	0.32785612
134	0xbec62a63	-0.38704214
135	0x3f02b415	0.51056033
136	0xbde2c5fb	-0.11072918
137	0xbe6ba429	-0.23011841
138	0xbedc4a54	-0.43025458
139	0xbda97d05	-0.08275799
140	0xbee37ccc	-0.4443115
141	0x3d362fcc	0.044479176
142	0xbf2b4f93	-0.66918296
143	0x3dc2ef65	0.09518317
144	0x3f076808	0.52893114
145	0xbe959fdf	-0.29223534
146	0x3deeb5d8	0.11655778
147	0xbef98ea8	-0.4874165
148	0xbda8b654	-0.08237901
149	0xbf1cba7e	-0.61222064
150	0x3f074dea	0.5285326
151	0x3e7452ae	0.23859665
152	0xbe252446	-0.16127118
153	0xbedb9f4c	-0.4289497
154	0x3eba7aff	0.36421964
155	0x3e91d880	0.2848549
156	0xbecadf13	-0.39623317
157	0xbee410f1	-0.44544175
158	0xbe2538cd	-0.16134949
159	0x3e26fc75	0.16307242
160	0xbf25cae4	-0.6476271
161	0xbf03c97a	-0.51479304
162	0x3d96dbae	0.07366119
163	0x3e9aec31	0.30258325
164	0x3de3834a	0.11109026
165	0xbece65b9	-0.40311983
166	0xbed09467	-0.40738222
167	0xbedd905c	-0.432742
168	0x3e727675	0.23678
169	0xbe855a2c	-0.26045358
170	0xbed6cf82	-0.4195519
171	0x3e43061c	0.190453
172	0x3e847300	0.25868988
173	0xbe92c0e0	-0.28662777
174	0x3ec0b521	0.3763819
175	0x3edbfbf2	0.42965657
176	0xbefb7209	-0.4911044
177	0x3e18ef0b	0.14934938
178	0xbefbc694	-0.4917494
179	0xbedc4305	-0.43019882
180	0xbd8c643c	-0.06855056
181	0xbe3070e4	-0.17230564
182	0xbde68991	-0.112567075
183	0xbec201b3	-0.3789192
184	0xbf0c62bd	-0.5483816
185	0xbecfd41b	-0.4059151
186	0x3ce61219	0.028084802
187	0x3d5bc21c	0.053651914
188	0xbf017b17	-0.50578445
189	0xbf050935	-0.51967174
190	0x3e34aa42	0.17643073
191	0xbd19834b	-0.037478726
192	0x3ecfb240	0.4056568
193	0x3b2da1c4	0.0026494125
194	0x3e0bdccf	0.1365845
195	0x3ee3d7f5	0.445007
196	0x3f12704b	0.57202595
197	0xbdbc4139	-0.09192128
198	0xbe843e60	-0.25828838
199	0x3c3da442	0.011574807
200	0x3ea97aee	0.331016
201	0x3e51b800	0.20480347
202	0xbee82e81	-0.4534798
203	0xbe25de99	-0.16198196
204	0x3ecc4167	0.39893648
205	0x3daaa8c4	0.08332971
206	0xbe21fd69	-0.15819325
207	0x3e77b536	0.2419022
208	0xbedd7213	-0.43251094
209	0x3d6ad8db	0.057335716
210	0x3cd38de8	0.025824502
211	0xbece9715	-0.4034964
212	0xbf085f77	-0.5327067
213	0x3cda1dda	0.026625562
214	0x3d292ac1	0.04130054
215	0x3e85ed90	0.26157808
216	0x3ec79f31	0.3898864
217	0x3f13ea73	0.57779616
218	0x3dcdd9f2	0.100513354
219	0x3f045799	0.51696163
220	0x3ef6556a	0.4811204
221	0x3de61e3d	0.11236236
222	0xbea7bf60	-0.32763195
223	0xbea5ccd0	-0.32382822
224	0xbe9f228f	-0.31081054
225	0xbefd4016	-0.49462956
226	0xbf005bd0	-0.50140095
227	0xbe7a46e6	-0.24441108
228	0xbecfd1c8	-0.40589738
229	0xbe1f7890	-0.15573335
230	0x3ef9159f	0.48649308
231	0xbf071f6a	-0.5278231
232	0xbd87ac6b	-0.06624683
233	0x3d84ef43	0.06490948
234	0xbf0758e2	-0.5287
235	0xbe905e79	-0.28197077
236	0xbf2ed3e3	-0.68292063
237	0xbf09ad1d	-0.53779775
238	0xbef35ed2	-0.4753328
239	0xbe40741b	-0.1879429
240	0xbeb6b508	-0.3568499
241	0x3dcd7b43	0.10033276
242	0xbeeb9a81	-0.46016315
243	0x3f0e9d49	0.5570875
244	0x3e2a95a4	0.16658646
245	0x3e8248c8	0.25446153
246	0x3eac8c6b	0.3370088
247	0xbe56debd	-0.20983405
248	0x3e9bee16	0.30455083
249	0x3f114748	0.5674939
250	0xbed87cba	-0.4228266
251	0x3e68ce82	0.22735026
252	0xbeb0e816	-0.34552068
253	0x3e1d777a	0.15377608
254	0x3e18fb37	0.14939581
255	0xbe801cef	-0.25022075

film.beta_net.bias f4 [120]
0	0x3b03c954	0.0020109015
1	0x3ea8090f	0.3281941
2	0x3f08f60d	0.53500444
3	0xbee0dd29	-0.43918732
4	0xbda808bd	-0.08204792
5	0xbeaa8004	-0.33300793
6	0xbf202292	-0.6255275
7	0xbf0aba3e	-0.54190433
8	0x3e241936	0.16025242
9	0xbd6a2e81	-0.057173256
10	0xbf1b23a3	-0.6060125
11	0x3db0a309	0.086248465
12	0xbdeebece	-0.11657487
13	0x3dbb24d8	0.09137887
14	0xbed196f7	-0.4093549
15	0xbf0854a6	-0.53254163
16	0x3e103e82	0.14086345
17	0x3eb220bb	0.34790596
18	0xbce6a29c	-0.02815371
19	0x3dafbcff	0.0858097
20	0x3eb016e1	0.34392455
21	0xbf289d80	-0.65865326
22	0x3c7d6266	0.015465355
23	0x3ee94da4	0.45567048
24	0x3ec08550	0.3760171
25	0xbf100363	-0.5625517
26	0xbd351463	-0.044208895
27	0x3e93269f	0.28740403
28	0xbe99f15d	-0.30066958
29	0xbf37f802	-0.71862805
30	0xbe33db48	-0.17564118
31	0xbc7b3fed	-0.015335065
32	0x3e521d46	0.2051898
33	0x3e44955b	0.191976
34	0xbc210082	-0.009826781
35	0xbe23b9ce	-0.15988848
36	0xbe025893	-0.12729101
37	0xbc24d373	-0.010060179
38	0xbe3a8c98	-0.18217695
39	0x3d1c5cc5	0.03817441
40	0xbed1e78d	-0.40996972
41	0xbe311c15	-0.17295869
42	0xbf02e492	-0.5113002
43	0xbece8f39	-0.40343645
44	0xbebbadb6	-0.36655968
45	0x3e301bc3	0.1719809
46	0xbee1ba14	-0.4408728
47	0xbe1f1e69	-0.15538944
48	0x3d936c0f	0.07198345
49	0x3e273d20	0.16331911
50	0xbeccc3f0	-0.39993238
51	0xbebca796	-0.36846608
52	0x3e16dd6f	0.14732908
53	0xbdcc6aff	-0.099813454
54	0xbcfcc4a1	-0.030855479
55	0x3d4fa1ae	0.0506913
56	0xbe1d1d15	-0.15343125
57	0x3dfe2843	0.12410023
58	0xbf122aec	-0.57096744
59	0xbddc31c6	-0.10751681
60	0x3d9a769a	0.07542153
61	0xbf1418c3	-0.57850283
62	0xbedc2ce6	-0.43003005
63	0xbe923267	-0.2855408
64	0xbda13095	-0.078705944
65	0x3e06b9d4	0.13156825
66	0xbec10b3e	-0.3770389
67	0x3caaaae0	0.020833433
68	0xbf04fb91	-0.5194636
69	0xbe61acd8	-0.22038591
70	0x3ec9ce97	0.39415428
71	0x3d950f1c	0.072782725
72	0xbe42a65a	-0.1900877
73	0xbf50225b	-0.8130242
74	0xbe63ac98	-0.22233808
75	0x3e947793	0.28997478
76	0xbf067812	-0.5252696
77	0xbf00b8f7	-0.50282234
78	0x3d9347d6	0.07191436
79	0xbd39213f	-0.04519772
80	0x3ea9af2c	0.33141458
81	0x3d3d9d88	0.04629281
82	0xbe96e3e4	-0.29470742
83	0xbdb0900e	-0.08621226
84	0xbd9da88b	-0.07698163
85	0xbdb361e0	-0.087589025
86	0x3f12011e	0.57032955
87	0x3ec01621	0.37516883
88	0xbe20d68a	-0.1570684
89	0xbe03427f	-0.12818335
90	0x3d8eba4b	0.06969126
91	0xbe68d501	-0.22737505
92	0x3ef1d5ef	0.4723353
93	0x3c84f38a	0.01622941
94	0xbe754ca3	-0.23955016
95	0x3ece4c8a	0.4029277
96	0xbe223b5a	-0.15842953
97	0xbee85d36	-0.45383614
98	0x3e591c64	0.21202236
99	0xbf205fa2	-0.62645924
100	0x3f24b166	0.6433319
101	0xbee3fa2d	-0.44526806
102	0xbcb7d542	-0.022440556
103	0xbf0d0d40	-0.5509834
104	0xbd27bb20	-0.04094994
105	0xbe59052c	-0.21193379
106	0xbdb9207b	-0.09039398
107	0xbf12111a	-0.57057345
108	0x3e8523fc	0.26004016
109	0x3f4c2176	0.7973856
110	0x3e8f2bc0	0.27963066
111	0x3e52bcc0	0.20579815
112	0xbcd1ef12	-0.025626693
113	0x3eab722b	0.3348554
114	0xbf33fedb	-0.70310754
115	0x3f030218	0.5117507
116	0xbebadf2e	-0.36498398
117	0xbda041bc	-0.07825038
118	0x3d0b629c	0.034029588
119	0x3e8079e3	0.25092992

output.weight f4 [1, 120]
0	0x3d22c6d8	0.039740413
1	0xbe9a01c3	-0.3007947
2	0xbe5439cc	-0.20725173
3	0xbd6c0a36	-0.057626925
4	0xb73b426c	-1.1161534e-05
5	0xb3007844	-2.9911703e-08
6	0x3efc2f79	0.4925497
7	0xbe2c8d42	-0.1685076
8	0xbe108ca5	-0.14116152
9	0xbe5df0e5	-0.21673925
10	0xbdc73f0c	-0.09728822
11	0x3771f105	1.4420836e-05
12	0xbbe436bd	-0.006964533
13	0x3df76806	0.12080388
14	0xbd997a8a	-0.074940756
15	0xbd9c155d	-0.07621262
16	0x3e2b9f61	0.16760017
17	0xb37b8772	-5.856368e-08
18	0x3f10ee0f	0.5661325
19	0x3e18ae51	0.14910246
20	0xbe1cfda6	-0.15331134
21	0x3e240ee8	0.16021311
22	0xb2f88471	-2.8931227e-08
23	0xb828137a	-4.007246e-05
24	0x3de207bc	0.110366315
25	0x3db9a473	0.09064569
26	0x3e3b36d8	0.1828264
27	0xb22caa80	-1.0050485e-08
28	0x3d870402	0.06592561
29	0x3f06986e	0.5257634
30	0x3e8fddc2	0.28098875
31	0x3e4d9323	0.2007566
32	0xbdedb3da	-0.116065696
33	0xbe919dbf	-0.28440663
34	0x3d4394df	0.047749396
35	0xbdb75839	-0.08952374
36	0x3b6b7779	0.0035929366
37	0x3eb9ff72	0.36327702
38	0x3e91aa1b	0.28450093
39	0x3495cb6f	2.790143e-07
40	0x3e321c7d	0.1739368
41	0x33769709	5.7413704e-08
42	0xbdcaa7a1	-0.09895254
43	0x3d0a62e9	0.033785734
44	0xbe51e642	-0.20497993
45	0xb540a8b2	-7.177106e-07
46	0x3f36fa20	0.7147541
47	0xb53895ee	-6.876352e-07
48	0x3de9dd56	0.114191696
49	0x3dd18c70	0.102318645
50	0xbdb641cd	-0.08899269
51	0x363030e4	2.6254502e-06
52	0xb2b14ad3	-2.0639538e-08
53	0x3f5616e7	0.83628696
54	0x3d610e21	0.054945115
55	0xbd4c08e3	-0.049813163
56	0xbe3dffaf	-0.18554567
57	0xbe6a1613	-0.22859983
58	0xbc62d8ae	-0.013845606
59	0xbd5f75d8	-0.054555744
60	0xbdf6f4d0	-0.12058413
61	0x3f271e55	0.6528066
62	0x3c05de67	0.008170701
63	0xb765bfd7	-1.369413e-05
64	0xb7715de0	-1.4386576e-05
65	0xbe930735	-0.28716436
66	0x3d8f50dc	0.069978446
67	0x3e909563	0.28238973
68	0x3e72cd8f	0.23711227
69	0xbd951489	-0.072793074
70	0x3b67d24e	0.0035373154
71	0x3526e6d6	6.217573e-07
72	0xbe4a2341	-0.19740011
73	0xbdc953d8	-0.09830445
74	0xbba504bf	-0.005035966
75	0x338ea7a6	6.642885e-08
76	0x3d5dd81b	0.054161172
77	0xbd991f62	-0.07476689
78	0xbef87920	-0.4852991
79	0x3c4bb8c2	0.012434186
80	0x3ed8e0a7	0.42358896
81	0xb1879af1	-3.946632e-09
82	0xb38c96f3	-6.5467155e-08
83	0x3288fb37	1.5946723e-08
84	0xbbeb1507	-0.0071741375
85	0x3bc80eb0	0.0061052665
86	0x3e61e2dd	0.22059198
87	0xba060f99	-0.00051140186
88	0xb6a05286	-4.7779786e-06
89	0x39ddefa4	0.0004233095
90	0x3579ae73	9.3013585e-07
91	0xbe265d88	-0.16246617
92	0xbab86ce5	-0.0014070539
93	0xbd8ab1ff	-0.06772231
94	0x3e76413e	0.24048325
95	0xbe1aaeb1	-0.15105702
96	0xbc408121	-0.011749537
97	0x3bd62b4d	0.0065359236
98	0x3e919a4f	0.2843804
99	0x3cc1f048	0.023674145
100	0x3ea5079a	0.32232362
101	0xbda2e082	-0.07952978
102	0xbf1aaa86	-0.6041645
103	0x3e151d3f	0.14561938
104	0xbc412edf	-0.01179096
105	0xbe8b41d4	-0.2719866
106	0xbd8478dc	-0.064683646
107	0x3ce3d7e9	0.027812915
108	0x3e98f2b7	0.29872677
109	0x3f135e1d	0.5756548
110	0xbeeb119d	-0.45911875
111	0x3db36823	0.08760097
112	0xbec1e47d	-0.37869635
113	0x3f4962ea	0.78666556
114	0xbe52e170	-0.2059381
115	0x3eb8a60e	0.3606419
116	0x3d9b434c	0.07581195
117	0xb82d77c1	-4.1357944e-05
118	0x3a83cbac	0.0010055206
119	0xbd443711	-0.047904078
